Requirement already satisfied: torchsummary in /usr/local/lib/python3.10/dist-packages (1.5.1)
cuda
----------------------------------------------------------------
        Layer (type)               Output Shape         Param #
================================================================
            Conv2d-1           [-1, 16, 17, 17]             448
              ReLU-2           [-1, 16, 17, 17]               0
       BatchNorm2d-3           [-1, 16, 17, 17]              32
            Conv2d-4           [-1, 32, 10, 10]           4,640
              ReLU-5           [-1, 32, 10, 10]               0
       BatchNorm2d-6           [-1, 32, 10, 10]              64
            Conv2d-7             [-1, 64, 6, 6]          18,496
              ReLU-8             [-1, 64, 6, 6]               0
       BatchNorm2d-9             [-1, 64, 6, 6]             128
          Dropout-10             [-1, 64, 6, 6]               0
           Conv2d-11            [-1, 128, 4, 4]           1,280
             ReLU-12            [-1, 128, 4, 4]               0
      BatchNorm2d-13            [-1, 128, 4, 4]             256
           Conv2d-14            [-1, 128, 3, 3]           1,280
             ReLU-15            [-1, 128, 3, 3]               0
      BatchNorm2d-16            [-1, 128, 3, 3]             256
           Conv2d-17            [-1, 256, 3, 3]           2,560
             ReLU-18            [-1, 256, 3, 3]               0
      BatchNorm2d-19            [-1, 256, 3, 3]             512
          Dropout-20            [-1, 256, 3, 3]               0
           Conv2d-21            [-1, 256, 3, 3]           2,560
             ReLU-22            [-1, 256, 3, 3]               0
      BatchNorm2d-23            [-1, 256, 3, 3]             512
           Conv2d-24            [-1, 256, 3, 3]          65,792
             ReLU-25            [-1, 256, 3, 3]               0
      BatchNorm2d-26            [-1, 256, 3, 3]             512
           Conv2d-27            [-1, 512, 4, 4]           5,120
             ReLU-28            [-1, 512, 4, 4]               0
      BatchNorm2d-29            [-1, 512, 4, 4]           1,024
          Dropout-30            [-1, 512, 4, 4]               0
           Conv2d-31            [-1, 256, 4, 4]           4,864
             ReLU-32            [-1, 256, 4, 4]               0
      BatchNorm2d-33            [-1, 256, 4, 4]             512
           Conv2d-34            [-1, 256, 4, 4]          65,792
             ReLU-35            [-1, 256, 4, 4]               0
      BatchNorm2d-36            [-1, 256, 4, 4]             512
           Conv2d-37             [-1, 64, 3, 3]           2,368
             ReLU-38             [-1, 64, 3, 3]               0
      BatchNorm2d-39             [-1, 64, 3, 3]             128
          Dropout-40             [-1, 64, 3, 3]               0
        AvgPool2d-41             [-1, 64, 1, 1]               0
           Conv2d-42             [-1, 10, 1, 1]             640
================================================================
Total params: 180,288
Trainable params: 180,288
Non-trainable params: 0
----------------------------------------------------------------
Input size (MB): 0.01
Forward/backward pass size (MB): 0.95
Params size (MB): 0.69
Estimated Total Size (MB): 1.65
----------------------------------------------------------------
